
startTime = 08/11/2024 16:06:20
===================SET UP=====================

Model: "sequential"
_________________________________________________________________
 Layer (type)                Output Shape              Param #   
=================================================================
 conv2d (Conv2D)             (None, 10, 52, 32)        512       
                                                                 
 max_pooling2d (MaxPooling2  (None, 10, 18, 32)        0         
 D)                                                              
                                                                 
 conv2d_1 (Conv2D)           (None, 10, 18, 64)        30784     
                                                                 
 max_pooling2d_1 (MaxPoolin  (None, 10, 6, 64)         0         
 g2D)                                                            
                                                                 
 flatten (Flatten)           (None, 3840)              0         
                                                                 
 dense (Dense)               (None, 128)               491648    
                                                                 
 dense_1 (Dense)             (None, 64)                8256      
                                                                 
 dense_2 (Dense)             (None, 2)                 130       
                                                                 
=================================================================
Total params: 531330 (2.03 MB)
Trainable params: 531330 (2.03 MB)
Non-trainable params: 0 (0.00 Byte)
_________________________________________________________________
xDim = 52
yDim = 10
yLim = 3
method = NSAGII
nGens = 20
popSize = 1600
nIter = 32000
gamma0 = 5.0
…
